pytorch_model/trained_models/LeNet_5_Model_StateDict.pth (torch, 251108 bytes, 10 tensors)

conv.0.weight f4 [6, 1, 5, 5]
00000000: b22a 0d3d 4bc6 3cbe a014 7ebe 37ab 65be
00000010: eac8 c3be 9c29 1fbd 3909 7a3d 7d3f 6abe
00000020: d31c a3be 6a67 77be c551 7b3e 74aa 21be
00000030: ea90 63bd 29a8 f7bd 1afe 51be 1688 a13e
00000040: cdb5 9e3e 26a0 463e 70a9 83bd 1792 ed3d
00000050: 87ba f73d 5bcf ab3e 4b0c ad3b 65f5 993e
00000060: 02d3 85bd b600 f5bd 4129 7abd 0f81 cb3c
00000070: 5221 943e b7e0 3e3e c610 dabd 9c57 5bbe
00000080: 0590 63bd d887 dc3e f816 883e f3e8 5ebe
00000090: 9548 febd 111d aa3c 71af 233e 6e7c 7c3e
000000a0: aa41 7dbc 42a0 59be 3135 063e 52e3 1e3e
000000b0: 440c bc3d 281e 9bbe 684a ffbc aed7 17ba
000000c0: 5097 4fbe 069f cebc 6a3f 18be a988 833d
000000d0: 8034 78bd 8cb5 833e 6c49 953e 03f2 bc3d
000000e0: 8594 0f3e 4340 603e cbdd 953e 37cb 823e
000000f0: becb 753e f8a3 023e bf7f 5b3e 1c9f c63e
00000100: 4e9d a53d 908b 663e 00ef b33e ecf8 683e
00000110: e11a 483e b6ce 90bc 4567 673e eec9 343e
00000120: 5d8c a03d c479 d83c 45f1 43be dc75 96be
00000130: 5228 6fbe 7343 f23d a7af 783e 332d 833e
00000140: 3714 753d 1084 7b3d a1f2 3b3d aab7 823e
00000150: 76c4 3d3e d61d a73c dcc1 823a 7d03 883e
00000160: 9796 d53e ccb3 3e3e f634 f03d b243 b93d
00000170: b72f 333e 6cd3 c73e f01b 163e ff82 3bbe
00000180: f7a3 0f3d 9bd4 843d 36b6 e63c fe20 ec3c
00000190: 5ab9 91bd 0908 6fbe f057 99be 8039 c9be
000001a0: bb9f 163b 3cb4 28be 0573 68bd 5500 5ebe
000001b0: ec04 2ebe e48b c6bd 5e54 d53b d277 1abe
000001c0: 19e9 b7bd 2b52 423e bdce a73d e6ed 9abd
000001d0: 3fef 603d 92e3 a83e 8459 483e 3d9a c93e
000001e0: 746c 09bd f314 6b3e ca00 923e 65cc a53e
000001f0: 0b05 a53e 4bd7 aa3e 2223 753d eb22 ad3e
00000200: 9265 833e f780 1b3e fcb5 9a3e 519b c53d
00000210: 1b49 a43e a92e 3ebb 67fd 3e3e 7448 883e
00000220: f7bd 90bd 4bc8 30be 7098 b53d cfd7 ddbd
00000230: c588 123e 10f9 3abe 428b 8fbe 7884 b2be
00000240: d9f7 8abe f7cb b3be 3fdb a3be a514 a0be
00000250: 95b0 35be b08a f4bd
0.034464546 -0.18435018 -0.24812555 -0.22428595 -0.38239223 -0.03885804 0.06104395 -0.22875781
-0.3185793 -0.24160543 0.24542911 -0.15787679 -0.055558123 -0.12092621 -0.20507088 0.31549138
0.30998078 0.1939703 -0.06428802 0.1160013 0.12096124 0.33556637 0.0052810065 0.30070034
-0.06534387 -0.11963026 -0.0610745 0.024841813 0.2893167 0.1864041 -0.106477305 -0.21420139
-0.05555727 0.4307239 0.26580024 -0.2176855 -0.12416188 0.020765813 0.15984894 0.24656841
-0.01545755 -0.2125254 0.13106228 0.15516403 0.09182027 -0.30296445 -0.03116341 -0.00057923316
-0.20272565 -0.025222313 -0.1486794 0.0642255 -0.060596943 0.25724447 0.2915758 0.092258476
0.140215 0.21899514 0.29270777 0.25545666 0.24003503 0.12757862 0.2143545 0.38793266
0.08086644 0.22514176 0.3514328 0.22751206 0.19541503 -0.017676692 0.22597988 0.17655155
0.07839272 0.02642525 -0.19135006 -0.29386795 -0.23355225 0.11829271 0.24285756 0.25620422
0.05983373 0.06140524 0.045885686 0.2553075 0.18531975 0.02039997 0.0009975987 0.2656516
0.41716453 0.18623275 0.117288515 0.09046115 0.1749867 0.3902849 0.14659095 -0.1831169
0.03506848 0.06485864 0.028163057 0.028824326 -0.07115431 -0.23342909 -0.29949903 -0.39301682
0.002298339 -0.16475004 -0.056750316 -0.21679814 -0.16994065 -0.09694651 0.0065103015 -0.1508477
-0.08980007 0.18976657 0.08193729 -0.07564907 0.054915663 0.32986122 0.19565398 0.39375487
-0.033550695 0.2295721 0.28516227 0.32382503 0.3223041 0.3336738 0.05984796 0.33815703
0.2566343 0.15185915 0.30216968 0.09648765 0.32087025 -0.002901951 0.18651353 0.26617777
-0.07067483 -0.17263906 0.08866966 -0.10832178 0.14309986 -0.18259072 -0.28035933 -0.3486669
-0.27142218 -0.3511655 -0.3200321 -0.3126575 -0.17743142 -0.11940515

conv.0.bias f4 [6]
00000000: 980e d43b b8f0 1a3e 3a70 54be a3b5 92bd
00000010: fdb6 4fbe f89b 06be
0.0064714663 0.1513089 -0.20745936 -0.07163551 -0.20284648 -0.13145435

conv.4.weight f4 [16, 6, 5, 5]
00000000: 1eb8 06be e95e c73b 7472 05bd 78e0 84be
00000010: b146 dcbd 341c d93c 871c 183d 722a 803e
00000020: 1e0b d23d 2654 c13d 5c8d 6d3d 5875 763e
00000030: afeb bf3e f886 aa3e 4b9e 413e 5722 563c
00000040: d2eb 02be 58ee d03d 5a3b 703e a42a 7f3e
00000050: bb73 9cbd 459d 2fbe 3607 8ebe 15ea 3b3d
00000060: 941b cc3e 4857 ae3d 38d5 d9bd 173e a6bd
00000070: 3bd8 003e 51ef 413d 81d4 36be ffc2 54be
00000080: cd01 57be 03e6 e8bc 8e84 dbbd 49f7 7abd
00000090: cfba 3ebe 6af6 25be 623b 52be 4323 febd
000000a0: f148 8f3c fc57 bc3c 22b2 ffbd 5d69 3ebe
000000b0: 506b 41be 2a29 743d a337 5ebc 5c14 3c3a
000000c0: a6fb 78bd 15d7 89be f7fd 3f3d 6762 dabd
000000d0: 571d 27be 9648 10bc 54ab 2bbe 8776 afbc
000000e0: 35c8 2cbe 0cff ffbc 4da3 48be 69c7 3fbe
000000f0: ebea b43c 2da4 d03d acbc 9e3d 3ed9 9bbd
00000100: bd39 25bc 7a5c 623e ee63 0f3e f082 2a3e
00000110: daea 3f3e e0b7 a93d cbbf 133e 10aa b13d
00000120: 19a3 eb3d 6e30 0b3e 9e96 2f3d 9a09 8ebd
00000130: 81a1 27be 78f3 d4bd f210 f7bd 62f9 3cbe
00000140: 2469 1c3d bf67 cbbd 915d 2ebe e6dc 43be
00000150: 1419 0ebe 16c0 41bb 3a9f a23c 8eba babc
00000160: ed3f 95bd 912e 34bd 536d 243e 5eeb 9f3d
00000170: 2553 533e f0de 7f3d b725 c7bc c60e 133e
00000180: 3c4a e13c 1990 383e 8be3 5f3d 25a4 903d
00000190: fb58 94bd 3c3b cbbd 77a6 54be add4 8abe
000001a0: 9092 aabe 3e90 bfbd e16d efba ca8b 0c3e
000001b0: 3b65 d53d f80a 3c3c 7018 bb3d c552 833e
000001c0: 9d03 913e dba8 de3d 4dc5 a33d a162 553d
000001d0: 292b 1a3e 38e4 4c3e 2f50 8f3d 2484 fcbd
000001e0: d5b8 ebbb d702 d7bd 9359 3f3e ca64 493e
000001f0: 350d 743d f07e 9ebd d539 6f3b 9119 403e
00000200: 0405 b03c 82f2 983d ccce bdbd 2268 6ebd
00000210: b75c 48be 094a 87be d4be 87be 689c 60be
00000220: b625 d0be 3501 b4be 6366 85be 5d2d 31be
00000230: a2c4 1fbe 90b1 a3bd 7454 3ebd 655e 9dbd
00000240: 1452 2f3c aa2b 333d 0b26 c83d bc93 e53c
00000250: b233 35be 027a 45bc 0349 2f3e 9370 093e
00000260: fcec 37bb 292c 543e f609 5c3e 81c6 183e
00000270: 21d9 ebbd 0715 fdbd 6c12 d2bb dd5e 9c3d
00000280: d5dc 8bbd b355 5fbd d3f0 fb3d 4e20 313e
00000290: c2a5 693e 7655 df3d dcc2 593b 200d 5dbb
000002a0: e854 aa3d 52c4 df3e 3625 a7bd a05f 91be
000002b0: 76ae 96be c60d 84be 6b12 df3d 11c7 ccbd
000002c0: 3c90 0e3e 02ad 9f3c 421a 95bd b3b0 27be
000002d0: c946 943c c168 193e 4be2 b73d 74a8 d4bd
000002e0: 50e4 78bd 6ed6 373d 0b8b 25bd d9ff b3bc
000002f0: 21f4 43be 6b3e 5bbe 5713 a23d f0a9 353d
00000300: 4c5e 163d e00c c6bd 81b7 75be 919e 023e
00000310: 1c18 403e cff8 403e a30e ce3d a885 fdbd
00000320: fa96 9bbd 76f8 c1bd f3ac b3bd 85a0 7fbd
00000330: 631c 27be cfa6 493d 3e0c a73c 24a3 f0bc
00000340: 8a2a e2bd c302 c7bd c8fd 2a3d 7ad5 b03c
00000350: 9aa5 713d 3246 62ba 5cc6 dbbd 0100 913d
00000360: acff eb3d 64c5 d63d 5116 303e 38ac bd3d
00000370: c7ac 0a3e 5026 053e 334e bc3c 12e6 cb3d
00000380: a405 613e 6152 98bd fad0 b0bc 5d31 783c
00000390: 91a2 58be f16d 40be 06d6 65bd e805 09bc
000003a0: 5b37 ba3c 81ab 82bd 722a 2abe 3ae0 b3bc
000003b0: 60ba 1abd 8968 96bc 5339 afbd 5c52 edbd
000003c0: 3b8b 5339 7c7c d73d 8d6e e73d c0eb 0d3e
000003d0: 661c e53d 6d6b c23d 4903 823d 02ec 663b
000003e0: fb53 513e ceaf fd3d 0d7e c43c 2340 233e
000003f0: 431b 49bd 7a33 14be 6a0f 09be 7314 85bd
-0.13156173 0.006084312 -0.032579854 -0.25952506 -0.10755671 0.026502706 0.03713658 0.25032383
0.10256027 0.09439878 0.05799614 0.240682 0.374845 0.33306098 0.1890804 0.013069711
-0.12785271 0.102017105 0.23460141 0.2491861 -0.07639261 -0.17149837 -0.27739877 0.045877535
0.3986479 0.08512741 -0.106363714 -0.081173114 0.12582485 0.04734737 -0.17854501 -0.2077751
-0.2099678 -0.02842999 -0.10718642 -0.061270986 -0.1862595 -0.16207281 -0.20530465 -0.124090694
0.017490836 0.022991173 -0.12485148 -0.1859488 -0.18888593 0.05960957 -0.0135630695 0.00071746646
-0.060786866 -0.26921907 0.04687306 -0.106633 -0.16319786 -0.008806368 -0.16764575 -0.021418823
-0.16873248 -0.031249546 -0.19593544 -0.18728413 0.022084674 0.10187564 0.0775083 -0.07609795
-0.010084567 0.2210559 0.14002964 0.16651511 0.18741933 0.082870245 0.14428632 0.08675015
0.11505718 0.13592693 0.04286825 -0.06935425 -0.16370203 -0.103980005 -0.12063779 -0.18454507
0.038186207 -0.09931897 -0.1702788 -0.19127235 -0.13876754 -0.0029563955 0.019851316 -0.022794034
-0.072875835 -0.04398972 0.16057329 0.078085646 0.20637186 0.06246847 -0.024309976 0.14361104
0.027501218 0.18023719 0.05466036 0.07062558 -0.07243534 -0.099234074 -0.20766626 -0.27115384
-0.33314943 -0.09353684 -0.0018266999 0.137252 0.10419699 0.0114772245 0.091355205 0.25649086
0.2832307 0.108720504 0.079966165 0.052096013 0.15055527 0.20008934 0.06997716 -0.12329891
-0.0071936646 -0.104985885 0.18686514 0.19667354 0.059582908 -0.07739055 0.0036502976 0.18759753
0.021486767 0.0746813 -0.09267959 -0.058204778 -0.19566618 -0.26423672 -0.26512778 -0.21934664
-0.4065377 -0.3515717 -0.26054677 -0.17302461 -0.15602353 -0.07992852 -0.04646726 -0.0768402
0.010700721 0.043742813 0.09772881 0.028024547 -0.17695501 -0.012053015 0.17117696 0.1342185
-0.0028064838 0.20719971 0.21488175 0.14919473 -0.115160234 -0.12357526 -0.0064108875 0.07635281
-0.0682923 -0.05452509 0.12301793 0.1729748 0.22817138 0.10904972 0.0033227718 -0.0033729747
0.08316976 0.43704468 -0.08161394 -0.2839327 -0.29429978 -0.25791758 0.10892185 -0.099989064
0.13922209 0.019491676 -0.07280399 -0.16375999 0.01810016 0.14981367 0.08978709 -0.103836924
-0.06076461 0.04488223 -0.040415805 -0.021972584 -0.19136097 -0.2141053 0.07913845 0.04435152
0.036711022 -0.096704245 -0.23995782 0.12755801 0.18759197 0.18844913 0.100613855 -0.123790085
-0.07597156 -0.09471218 -0.08773222 -0.062408943 -0.16319422 0.049231347 0.02039158 -0.029374667
-0.1104327 -0.09717324 0.04174593 0.021586169 0.05899582 -0.0008631676 -0.107311934 0.07080079
0.11523375 0.10486868 0.17196013 0.09261364 0.13542472 0.13002896 0.022986507 0.09955992
0.21974808 -0.074375875 -0.021584023 0.015148488 -0.21155764 -0.1879194 -0.05611231 -0.008363225
0.022731474 -0.06380368 -0.16617754 -0.021957505 -0.037775397 -0.018360393 -0.085558556 -0.115879744
0.00020174395 0.105217904 0.11300383 0.13859463 0.11187057 0.09493146 0.06348283 0.0035235886
0.20442192 0.12387048 0.023985887 0.15942435 -0.049098264 -0.14472762 -0.13384786 -0.06498041

conv.4.bias f4 [16]
00000000: 6cac b63d 4d6f 4bbd 050c b13d 451e df3d
00000010: 4191 73bd 559c 043d 1467 073d 2376 87bd
00000020: 0f4b 063e a388 4abc 6237 603d 68c4 9dbb
00000030: e65a 1a3c 05bc 7fbd 5eb7 3bbd f6c5 0abc
0.089196056 -0.04966669 0.08644871 0.10894445 -0.059464697 0.032375652 0.033057287 -0.0661433
0.1311457 -0.012361678 0.054740317 -0.004814673 0.009421086 -0.06243517 -0.04582917 -0.008470049

conv.8.weight f4 [120, 16, 5, 5]
00000000: 63d3 0ebb 11cd 203d a0a4 063b 2c9a 943d
00000010: c299 ee3d 64a1 123e e932 603d 63bb c93d
00000020: be79 533c 20f7 f23d bc8b bf3d 5839 e6bd
00000030: 3024 703b 7b65 c43c d3ed afbd 5265 19bd
00000040: afb2 193d 5fd1 33bd fc2d c93d e9c1 4bbe
00000050: 3bbb 65be d2ef 4dbe 0520 c3bd b1f5 243d
00000060: 282e 2d3e 7088 80bc a4e8 313d 7ec7 213e
00000070: 044d df3d 0ddf 473e 8801 d03c 3586 f73a
00000080: 5d42 c13d e2a8 903d 5038 0a3e 9f8a 893d
00000090: 330a 823d d11f c33d 7cad f73d 8b56 07bd
000000a0: 7370 093d de5d 9bbc beb1 2c3d 2a79 0ebd
000000b0: f1c6 2dbe b2cd 23be ab3e eabd d609 023c
000000c0: 2e64 b83c a283 76bd 0e27 023e 3791 81bd
000000d0: dc4c a03c 9d08 b93d 29c5 3a3e 144a 173e
000000e0: f7c6 443d bfd4 3cbd 0307 8bbd a415 36bc
000000f0: c05a 703d 6e16 b93a 5390 90bd a7e8 6a3d
00000100: dff7 c8bd b403 c0bd 0908 a23c 2353 833c
00000110: a03b 933d 9a99 2b3d 52cf 13be a04c 83be
00000120: 28ff ffbd 57d0 933d 0b42 423e a982 0a3e
00000130: b767 f13c 5aa4 143d 4437 ac3d 7953 c73d
00000140: 7bde 863d b5ba cb3d c3f7 20be 52cc 6cbd
00000150: 872a 80bd 00c7 dcbd dfb7 233d f829 75bd
00000160: 7848 623c baca aabc 97db 0bbe 4241 0abb
00000170: 7b2b 9bbd 36a2 8c3c 458e 013e 6a44 243e
00000180: f89f 443d 7da9 04be fa16 3e3d c7f8 363c
00000190: ea1a 733d 2ac1 bebc 99c6 45bd 79c7 4a3b
000001a0: a280 acbc 2be4 d83c cde3 aebd 88f2 8fbc
000001b0: 656c cb3c 4e7d e53c d621 9ebd 7910 f33c
000001c0: b25a 1f3b 0e9e afbc 552d 7f3d 4376 533c
000001d0: aa52 f13b bc3f 46bd c8e4 4ebc 188c 0d3c
000001e0: 33f3 243d f304 cfbc 3e5f 51bd 8a89 bebd
000001f0: 80ef 1f3d 283f ffbd 3f29 e4bd 67d4 15bc
00000200: e68d c9bd 0ac9 d0bc f2be a5bc a7c7 57bd
00000210: 2240 dbbd ccc4 913b 74dd 333e 95ac 563d
00000220: f91a 9e3c 5707 b2bb 1df1 2b3d 4777 653d
00000230: 0b5f d83d efbf f2bb fde2 183d be82 253e
00000240: 8599 003d 63bb 823d 27d3 3cbd 3753 a43c
00000250: 03de df3c b694 55bc 200c c1b6 75b1 debd
00000260: dbdd e5bd e209 013d f7da b63b 56e9 dd3a
00000270: 55f0 00bd 7f80 013e a15a c53d 8292 0cbd
00000280: 3827 24bd f460 9b3d 169f afbd 1773 a8bc
00000290: e57e a8bd 0242 803d 3b87 f73c cae9 143d
000002a0: 05bb 6cbc a4fc f3bb 00c6 26be caf9 7dbd
000002b0: a896 e6bd c414 be3d 289a 173e d4a4 483b
000002c0: 7130 efba 4706 1c3d d0b1 4a3d a581 283d
000002d0: 7ffb 32bb 4be6 a2bc 0d0f 1b3e 9ff5 1a3e
000002e0: 55cc ec3d 11f8 383d 0022 263d dbdc 79bc
000002f0: 16f3 8fbc 9dcd 06be d6b9 643e e9a7 e93d
00000300: aaa4 3b3d d943 5cbd 3997 31be a950 0dbd
00000310: 47d5 813c f617 d33c 7c86 93bd 1f40 293d
00000320: 1722 3e3d 434b 2dbc 50b0 2b3d 5617 153e
00000330: 2298 833e b90f 913c abba 823c e9f4 5e3d
00000340: 0a93 c03c aa4c 923c ded9 00be 6223 08bc
00000350: 0ad1 b23b 30c7 1a3d b6df a63d dfc7 5bbd
00000360: d05f 90bc 80c5 213d 51dc 933c 71b1 663e
00000370: ca4c b4bd c620 27be e4b4 27be 6fcf 3abd
00000380: f39a 1c3e e949 de3d e9e7 7f3d ef9d 613c
00000390: 4b8c 02bd 8dc8 3c3d 2c39 ccbd 703e 2a3c
000003a0: 39cd cabd 7ca9 cfbd fe3e 82be 31ed f4bd
000003b0: 59ff c4bd 9992 c8bd dd2b 91bd 7d8c 43bd
000003c0: 6ba9 93bd bae6 13be 7fad 97bc 716a b93c
000003d0: c8cb 1b3e fbcb 0ebe fd92 3abe 9817 0ebe
000003e0: b8de 9fbd b514 133e 3507 473b 214c fc3c
000003f0: 5728 6b3d 19ce 5fbd 0739 4cbc 2ce5 1c3e
-0.0021793477 0.039258067 0.0020544901 0.072559685 0.11650421 0.14319378 0.05473605 0.09850194
0.012907444 0.118635416 0.09352824 -0.11241406 0.0036642663 0.02397417 -0.08590283 -0.037450142
0.03752392 -0.043900844 0.09823224 -0.1989819 -0.22434704 -0.20111015 -0.095275916 0.040273372
0.16912138 -0.015690058 0.043434754 0.15798756 0.109033614 0.19518681 0.025391355 0.0018884601
0.09436486 0.07063462 0.13498044 0.06715893 0.063496016 0.09527553 0.120936364 -0.03304152
0.033554506 -0.018965658 0.042161696 -0.03478352 -0.16970421 -0.15996435 -0.11437734 0.007936915
0.022508707 -0.06018413 0.1271021 -0.06326526 0.0195679 0.09034846 0.18239273 0.14774352
0.04804131 -0.046101328 -0.06788447 -0.011113558 0.058680296 0.0014121064 -0.07058778 0.05735078
-0.09812903 -0.09375706 0.019779222 0.016030854 0.07189107 0.041894533 -0.14434555 -0.25644398
-0.12499839 0.07217472 0.18970506 0.13526405 0.0294684 0.03628955 0.084089786 0.09732718
0.065854035 0.09947721 -0.15719514 -0.057812043 -0.062581114 -0.10780144 0.039970275 -0.059854478
0.013811223 -0.02084862 -0.13657986 -0.0021096026 -0.075766526 0.017167192 0.12651928 0.16041723
0.04800412 -0.1295528 0.04640863 0.011167712 0.05935184 -0.023285467 -0.0482851 0.003094165
-0.02105743 0.026475986 -0.08539543 -0.017571703 0.02483196 0.028013851 -0.077212974 0.02967094
0.0024315533 -0.021437671 0.06229909 0.012906614 0.0073645907 -0.048400626 -0.012627788 0.008639358
0.040270995 -0.025270915 -0.05111622 -0.09303577 0.039046764 -0.12463218 -0.111406796 -0.009144879
-0.09841518 -0.025486488 -0.020232651 -0.052680638 -0.10705592 0.004448509 0.17564946 0.05241068
0.019299971 -0.005433004 0.04197799 0.056021955 0.10565003 -0.007408134 0.037325848 0.16163155
0.031396408 0.063833974 -0.046099808 0.020059211 0.027327543 -0.013035944 -5.7532598e-06 -0.10873691
-0.11223956 0.031503566 0.005580302 0.0016930501 -0.0314792 0.12646674 0.09636427 -0.03431941
-0.040076464 0.07586852 -0.08575265 -0.020562692 -0.08227328 0.0626259 0.03021585 0.03635577
-0.014448886 -0.0074458886 -0.16286469 -0.062005796 -0.11259204 0.092813045 0.148049 0.0030615823
-0.001824869 0.038091924 0.04948598 0.041139264 -0.0027310548 -0.019885203 0.1514246 0.1513276
0.11562411 0.04515845 0.04055977 -0.01525041 -0.017571967 -0.13164373 0.22336516 0.114089794
0.045811333 -0.053775642 -0.17342843 -0.03450075 0.015848769 0.025768261 -0.07203385 0.041320916
0.04641923 -0.010577026 0.04191619 0.14559683 0.25702006 0.017707692 0.01595815 0.054432783
0.023507614 0.017858822 -0.1258311 -0.008309217 0.0054570483 0.037787616 0.08148138 -0.05365741
-0.017623812 0.03949499 0.018049391 0.22528626 -0.08803709 -0.16321096 -0.16377598 -0.04560798
0.15293483 0.10853941 0.062477026 0.013770564 -0.031872075 0.046089698 -0.09971842 0.010390863
-0.09902424 -0.101397485 -0.25438684 -0.11959303 -0.09619016 -0.09793586 -0.070884444 -0.047741402
-0.07210048 -0.14443484 -0.018515347 0.022633763 0.15214455 -0.13945 -0.18220134 -0.13876188
-0.07806152 0.14363368 0.0030369286 0.03079802 0.057411518 -0.05463991 -0.012464768 0.15321797

conv.8.bias f4 [120]
00000000: 17de 123d bc32 d63c 4f39 903d 8989 babd
00000010: 1788 b3bb 20fd 7e3d 203f 0b3e a02b 653c
00000020: 0610 c53d 6860 173d eaf3 ecbd d553 bdbc
00000030: 4ca1 f7bc 052a 463c cec7 a9bd 3801 08bd
00000040: 46de 3fbd c41f 92bc 3d4a 72bd 32c6 ac3d
00000050: 6518 153d 48bf b8bd 3046 0bbd ff51 ab3c
00000060: 2074 f73c 6619 51bd cdb0 073d cb1e 753c
00000070: 849c da3c 0ec2 48bd 36d3 673c 7007 93bd
00000080: b594 753d ef55 aabd 461e c13c 3df6 9d3d
00000090: e45e 1c3d d2b6 8c3b f5fc c7bd 7f7c 083e
000000a0: b45e c53d 26a6 f83c a50c 3fbd 9461 14be
000000b0: a44c 6bbd 43c2 66bd 43f0 0a3d e1eb c23c
000000c0: fbb8 f6bd e648 7ebc fa35 89bd b0a6 2f3d
000000d0: 5810 1abc caf5 e1bd 2134 bc3d e573 8cbc
000000e0: 9bf6 b3bc 2177 a2bd e9b2 cebc 4a7f 98bc
000000f0: f7b8 113e c838 c1bc d424 383d ca85 2ebd
00000100: f36f 8dbd 4d62 57bc 4f4e 78bd 8412 f33c
00000110: 5d5d c03d a4a3 623c 1cc7 61bd b638 b83c
00000120: 4a06 273c 4e39 003e 8ab1 9dbc fee7 573d
00000130: 998e 2e3d ce6f 45bc c5e1 8a3c 9f93 c33b
00000140: 2d2d 2a3d c2a3 91bc ec77 3a3d e9f3 44bd
00000150: f0c5 6dbd b815 0ebd ed03 cd3c 4867 c1bd
00000160: f8bb 98bd ad84 a2bd a708 3a3d a9b0 293d
00000170: 0275 e3bc f937 92bd 050b 7d3c 2edd 22bc
00000180: 75e0 c1b9 24d3 483d 6816 44bd e52d 0b3d
00000190: f860 703c e75e 613c 7398 113a 3341 7ebd
000001a0: 06a5 0e3c 028e 0bbc c2f0 98bd 8363 4cbd
000001b0: 91fc 763d d971 e73b 79ff 0c3e 67d9 333d
000001c0: f61f 36bd 40ad 31bd 5ffd 08bd a2bd 78bd
000001d0: ae9c e73d b9b9 91bd 3a0d 80bd b8a6 9abd
0.035856333 0.026147239 0.07042181 -0.09108264 -0.0054788697 0.062253118 0.13598299 0.013987452
0.09622197 0.036957175 -0.115699604 -0.023111263 -0.03022828 0.012094979 -0.08290063 -0.033204287
-0.046842836 -0.017837413 -0.05915283 0.0843624 0.036400218 -0.09020859 -0.034002483 0.020913122
0.03020674 -0.051049612 0.033127595 0.014960955 0.02668596 -0.04901319 0.014149478 -0.07179153
0.05995627 -0.08317172 0.023574006 0.07712982 0.038176432 0.004294255 -0.097650446 0.13328741
0.09637204 0.030352663 -0.04664292 -0.14490348 -0.057446137 -0.056337606 0.033920538 0.023794116
-0.12047001 -0.01552031 -0.06699748 0.042883575 -0.009403311 -0.11033209 0.0918963 -0.017145107
-0.021968177 -0.07932878 -0.025231795 -0.018615384 0.14230715 -0.023586646 0.044956997 -0.04260806
-0.06906118 -0.013145995 -0.060621556 0.029671915 0.09392808 0.01383296 -0.055121526 0.02248798
0.0101943705 0.1252186 -0.019249696 0.05271148 0.04261646 -0.012050582 0.016953358 0.0059685255
0.04154699 -0.017778281 0.045524523 -0.048084173 -0.058050096 -0.03468868 0.025026286 -0.094435275
-0.07457727 -0.07935462 0.045418408 0.041428242 -0.027765755 -0.07139582 0.015444522 -0.009940429
-0.00036979062 0.049029484 -0.04787293 0.033979315 0.014671557 0.013755537 0.0005554028 -0.062073898
0.008706337 -0.008517744 -0.07467796 -0.04989959 0.06029946 0.0070631322 0.1376933 0.043908503
-0.044464074 -0.043378115 -0.03344476 -0.060727723 0.11309181 -0.07115502 -0.06252523 -0.0755133

fc.1.weight f4 [84, 120]
00000000: 0ccc 27bd c79f 37bd 9236 103d 2fef 7bbc
00000010: 5edc d6bd 560b 0f3e c7a8 393c c898 bd3c
00000020: 275a 27bc 1c4f 4a3d 1795 91bd 10fa a93d
00000030: c030 643e 1eaf 5c3e d940 7bbe 6cab 93bd
00000040: e778 ed3d 04f1 b73d 43bd fa3d cbb1 10bd
00000050: 1718 1c3e 23da 843c 7705 5a3d 9144 68be
00000060: 008e b8bd 9d58 14bd 8a77 f3bd 6f8e e23c
00000070: 2a33 c53d 3621 ec3d 6504 123e e7f5 5b3e
00000080: d49b 983d 6c77 0cbe 0e7d 753e ec91 41be
00000090: a463 1e3d cbed cebd b723 27be 78bd e8bd
000000a0: 0864 b3bd 930a eebc 2d7e b83c 4409 be3d
000000b0: 3c47 3b3e d538 363d 9233 eabd 14a1 0dba
000000c0: faf3 d6bd 8552 183e d561 9f3d 2506 9c3d
000000d0: 073f 77be 140e b33d 70d9 443d 3e3f 433b
000000e0: 8a15 88bd a4c8 2ebc 3e56 10bd 0adc ff3c
000000f0: f231 ef3d 0271 e53c 99d7 d83c 1953 a2bc
00000100: b613 813d 8ec8 b83d 9846 4fbd 1eaf a23d
00000110: 9a9c 5dbe 5aa7 81bd 9325 b8bb 081f 6e3d
00000120: 3109 b93d 4483 fcbd 2851 38bc dba1 de3d
00000130: 6a68 69be e2e3 bcbd 52e1 1bbc 789e c7bd
00000140: bb39 1ebd 9d47 703e 97ab 783d 5c5f c7bb
00000150: 79c7 1e3e 0e7b 3e3c 17fe e0bd 4def 953e
00000160: bee4 f5bd 5e16 0abe 7e0c 08be 7fed 2fbe
00000170: cd61 76be 630d a03d 3628 1bbe 27e1 9fbd
00000180: e5de 92bd d6e1 593e c218 ec3a 7303 8c3e
00000190: 8f54 d3bc 0c71 a63c 25ff df3d 74c1 42bd
000001a0: c6bc 3ebe 7527 31be b615 0abe 8954 31be
000001b0: 531d edbd 7071 bb3d 1892 f9bd 2023 ddbc
000001c0: 7581 0b3e 7ea8 e0bd f990 24bd 954f 503d
000001d0: fcf0 7c3d 9f7b f83d 27b9 833d ed74 883c
000001e0: 2a62 09be 0d1a 59be ee98 ab3c 38c1 b9bd
000001f0: 4041 233e cfc4 a5be ee0f b8bd c6cb 09be
00000200: 6fb0 d43d 52bb 67bd 8dd6 eabc fbfd fc3d
00000210: 855b 353c c1c9 22be 9dea b5bc afa2 eebd
00000220: 525f f43d 00d4 21be c87a 8bbd 70df b03c
00000230: a3f4 19be dd9f 9fbc dc32 da3d c579 853b
00000240: eef7 a73c 2c69 6e3d 77cd 063e cbda 19be
00000250: 5488 123d 4945 ea3d 8824 4f3e f076 99bd
00000260: 951d 7e3e 19e1 e4bd ca78 193c f575 e0bd
00000270: 0b9d 2dbe 63aa 05bc 704c 1f3e bb48 2dbd
00000280: cccb 83bd 406e 263e 7af9 b8bd 7771 343e
00000290: 5c6f a53d da5f b73e f608 16be 111c b1bd
000002a0: fdbb 89bd 6eb4 2e3e 470e 65bd fe5d 61bd
000002b0: c25e 1e3d fcd1 4b3d f942 a4bd 0ccb 133e
000002c0: 401f 81bd 7569 04be 0de6 14bd 5333 12be
000002d0: 44d2 fbbd 7aa8 98bc 0fa3 65bd 93ef 0fbe
000002e0: 25a7 a6bd 515a 7bbe aa0c f83d e300 0abe
000002f0: 2cb0 553e f574 8abd 33d4 45be c47a 10be
00000300: b2d4 75be 6310 30be 2541 df3d 46e6 b1bd
00000310: 3d72 16be 8682 573e a70b 4ebd a7de cf3d
00000320: e7f1 e13d 6f1c e23d a5f6 37bd dd01 c9bd
00000330: 87b1 ca3b 542f 4e3c 3769 573e 07b7 6dbd
00000340: 3d29 273e fd6d 60be ff5e c33c 9efe 46bd
00000350: 948b b3bc aea1 363d 2701 423e 7ed2 43bd
00000360: 0359 0abe 8c4f 883e e3a3 97bc 8316 ffbd
00000370: 5a86 5fbd d7c0 dcbc ec95 0a3c b3f5 65be
00000380: 7ac3 78bd d639 1dbc a93c b63d b00a 533e
00000390: b569 3c3d 273e 453d f26e 84bd 178b df3d
000003a0: e084 693d 2fbd 2dbe e2f8 70be a8e0 853d
000003b0: 077b ed3d 6b43 d23d 33d6 613d 0a29 5f3d
000003c0: 47f2 e33c caa1 373e a087 a5bc 3fa1 433e
000003d0: f995 0ebe 1a0d f03c 156c b8bd 3822 f63d
000003e0: 0bed 143e 1df3 46bd 4551 653d c120 15bd
000003f0: d3c9 623e 637a 593d 26a5 5bbc f840 1c3e
-0.04096608 -0.04483011 0.035208292 -0.01537685 -0.104912505 0.13969168 0.011331744 0.02314414
-0.010214365 0.04939185 -0.07108515 0.08299649 0.22284222 0.21551177 -0.24536456 -0.072104305
0.11595326 0.08981517 0.1224313 -0.035325807 0.15243565 0.016217297 0.053227868 -0.22682406
-0.09011459 -0.03621732 -0.11888035 0.027655808 0.096288994 0.11529772 0.14259489 0.21480523
0.07451597 -0.13717431 0.23973486 -0.18903321 0.038669243 -0.10103949 -0.16322218 -0.11364263
-0.08759314 -0.029057777 0.022521103 0.09279111 0.18288893 0.044487793 -0.114356175 -0.00054027257
-0.104957536 0.14875229 0.07782332 0.076183595 -0.24145137 0.087429196 0.048058927 0.0029792334
-0.06644733 -0.010667954 -0.035238497 0.031232852 0.11679448 0.028007988 0.026469992 -0.019815015
0.06302588 0.09022628 -0.050604433 0.07943557 -0.2164177 -0.06330748 -0.0056197136 0.058135062
0.09034956 -0.123297244 -0.011249818 0.10870715 -0.22793737 -0.09223153 -0.00951417 -0.097470224
-0.038629275 0.23464818 0.060710516 -0.006084366 0.1550578 0.011626018 -0.10985964 0.29284135
-0.1200652 -0.13485095 -0.13286015 -0.17180441 -0.24060746 0.07815053 -0.15152058 -0.07806616
-0.0717142 0.21277556 0.001801275 0.27346382 -0.025797157 0.020317577 0.10937337 -0.047547773
-0.18626699 -0.17300208 -0.13484845 -0.17317404 -0.11577859 0.09152496 -0.12186068 -0.026994288
0.13623603 -0.10969637 -0.04017732 0.050857145 0.061753258 0.12132954 0.064317994 0.016657317
-0.13416353 -0.21201344 0.020946946 -0.09070057 0.1594286 -0.32376716 -0.08987413 -0.1345664
0.103852145 -0.056575127 -0.028666759 0.123531304 0.011069183 -0.15897276 -0.022206599 -0.11652123
0.119322434 -0.15803528 -0.06810528 0.021590918 -0.15034728 -0.019485408 0.10654232 0.004073354
0.020503964 0.05820577 0.13164316 -0.15024869 0.035774544 0.11438996 0.2022878 -0.07493389
0.24815972 -0.111757465 0.009367177 -0.109599985 -0.16954438 -0.008158299 0.15556502 -0.04230569
-0.064353555 0.16252995 -0.09031959 0.17621408 0.08077881 0.35815316 -0.14651856 -0.08647931
-0.06725309 0.17061016 -0.05592182 -0.05502128 0.038664587 0.049760804 -0.080205865 0.14432925
-0.063047886 -0.12930854 -0.036352206 -0.14277391 -0.12295964 -0.018635023 -0.056063708 -0.14056234
-0.08137349 -0.24546172 0.121117905 -0.13476901 0.20867985 -0.06760589 -0.19319229 -0.14109331
-0.24006918 -0.17193751 0.10901097 -0.08686499 -0.14692016 0.21045884 -0.05030408 0.101498894
0.11032467 0.110405795 -0.044912953 -0.098148085 0.0061857137 0.012584526 0.2103623 -0.058035877
0.16324325 -0.21916957 0.023849009 -0.048582666 -0.021917142 0.044587784 0.18945752 -0.047808163
-0.13510518 0.2662319 -0.018510764 -0.12455466 -0.054571487 -0.026947422 0.008458596 -0.22457008
-0.060733296 -0.009596309 0.08898289 0.20609546 0.045999248 0.048154976 -0.06466474 0.10915201
0.057011485 -0.16966699 -0.23532441 0.065369904 0.11595731 0.10266765 0.055135917 0.054482497
0.027825488 0.17932811 -0.020206273 0.19104479 -0.13924398 0.029303122 -0.0900499 0.120182455
0.1454355 -0.048571695 0.055985708 -0.03640819 0.22147302 0.053095233 -0.013406074 0.15259159

fc.1.bias f4 [84]
00000000: 774c 6bbd 9d6f 72bd f7f5 c7bc 84a9 01bc
00000010: df3c 2b3d 2d07 f8bc 4e90 f13c d14d b8bd
00000020: 09f3 4d3c 6cc5 d5bd 970c 203e f660 a43d
00000030: a79a e7bc b841 9c3d 7f56 1e3d ca82 6d3c
00000040: 409f 0dbe ebfc d13c 292f 0a3d ab65 bebd
00000050: 5470 3c3e faf2 36bd 782c cbbc 8888 1ebd
00000060: 21e6 103e 1c6c 5cbd d51d 303d 3f72 253c
00000070: f21c 203d 7e43 0abe dea7 303e 24e7 5ebc
00000080: 21e1 2cbd 6081 f33d 9cdf 18bc b7ff a73b
00000090: 5977 0e3d 4fd0 383e f748 6dbe 53e2 1fbd
000000a0: 2642 d9bd 5269 c33c 40dd 91bc 3883 8a3c
000000b0: 5acb a53d 26b8 7e3d c99e 8ebd 6bdc 7bbd
000000c0: d0b0 513d a642 343d e09b e53c 0eae 30bd
000000d0: eb15 aabd f226 0abe 1573 bcbd f451 b53d
000000e0: 855f 01bd 74ac 72bd dee2 9a3d 8a99 9ebd
000000f0: a311 0d3d 7f71 d03d 2157 90bd eaf8 b7bd
00000100: 4369 0c3e 9807 f6bd 8cd7 853d a394 f63d
00000110: 5974 94bd 81e9 11bd 55ec b6bd 159e 733b
00000120: ed0d 013d a914 a13d f60e 0dbe d306 c43d
00000130: bebf bc3c d4ad fa3c b4d9 a73d 2689 6d3c
00000140: 469f 7f3d 0157 b1bd badd f93a dfc4 9cbc
-0.05744597 -0.059188474 -0.024409277 -0.007913951 0.041806098 -0.03027686 0.029487755 -0.08999217
0.012570151 -0.10438046 0.15629803 0.08026306 -0.028271986 0.07629722 0.038656708 0.014496515
-0.1383028 0.025633296 0.03373638 -0.092967354 0.18402225 -0.044665314 -0.024801478 -0.038704425
0.14150287 -0.05381404 0.0429972 0.010098039 0.039090104 -0.13502309 0.17251536 -0.013604913
-0.042206887 0.11889911 -0.009330656 0.005126919 0.034781788 0.18048213 -0.23172365 -0.0390342
-0.1060832 0.023853932 -0.017805696 0.016908273 0.08095427 0.062187336 -0.069638796 -0.061489504
0.051194012 0.044008873 0.028028429 -0.04313474 -0.08304962 -0.13491419 -0.09201638 0.08853522
-0.031585235 -0.059246495 0.07562803 -0.07744129 0.034440648 0.10177898 -0.070478685 -0.089830235
0.13712029 -0.12013167 0.06535253 0.12040069 -0.07248754 -0.035623077 -0.089317955 0.0037173082
0.03150742 0.07865269 -0.13775238 0.09571614 0.023040649 0.030600466 0.081958205 0.014498031
0.062407754 -0.08659173 0.0019063272 -0.019136844

fc.3.weight f4 [10, 84]
00000000: cc91 86be 0bcc 9b3d c64c 733e 5924 c93e
00000010: 6e1f 053d cefd f5bd 7087 7fbe 56ea 563e
00000020: b45f 42be 737a 743e ff8b ae3e dbf4 023e
00000030: 1916 623e 3eba 38bc a7fc 1cbd 6b71 7bbe
00000040: 4017 5c3e 0184 133e ea2f 703d 4c6a 97be
00000050: 10ee 84be 2213 5a3e 5784 5d3e 5cda 573e
00000060: c57f e4bc 6489 4ebd 8103 ca3e 293e e53d
00000070: 5140 96be df5a a53e ae66 cb3d e6b0 a6be
00000080: 1392 593d 2218 61be 3caf f23d 479a 4cbe
00000090: 1264 6cbd 4d59 d6be c405 663e 69d4 57be
000000a0: cc58 323e c8e6 abbe b327 3dbe 4bde 80bd
000000b0: df4b c13d 0685 39bd b8fd a6be 4791 87be
000000c0: f349 90be 6042 883e 4a28 68be 3be7 c6be
000000d0: b413 94be d3c5 793e ff8e cabe 8297 c23e
000000e0: 0bdb 973e abe1 b9bd 3745 a63e 3db0 b9be
000000f0: ca6f d03d 0eeb a4be 5276 e03e 8446 31be
00000100: d605 b6be 9823 2cbe a0da 2d3c 7174 6e3e
00000110: f069 6e3e fb28 89bd eb2c 37be aea2 2b3e
00000120: 0499 913e 0411 3c3e 9c5e b03d f621 bbbd
00000130: 32c0 44be ac44 053e bd61 4b3d 97b1 47be
00000140: 7a42 423e 506c 10bd 6f11 9bbe 7fd7 443e
00000150: fe35 64be 73db c0be 0e60 3abd 1672 cb3e
00000160: 5d9b 3f3e 0e3d 223e 9f1b 9f3d 3aeb 49be
00000170: f034 5dbe d115 a9be 2ec3 e83e 9e73 4d3e
00000180: 7d6d 93be 1dc1 923e b84f d13e f099 0f3e
00000190: 9ebb bd3d 7a0a 7cbe e61e 08be 6f8a ad3c
000001a0: 876a 843e d475 a3be 777c 85be b2e9 edbd
000001b0: 7ecd 70be c251 babe d12d 6b3e da33 ca3e
000001c0: 77ed 343e 767d 60be 5bed 4f3e 77e7 163e
000001d0: 6042 c9be 016d 323e d6d9 a7be 8683 7d3e
000001e0: c12e ad3e fb14 983d 08bd a1be bc63 1f3e
000001f0: 84f9 b0be c6df 8b3e 3e5a 243e 19d8 0a3e
00000200: 96dd 8fbe 245c b63e cfe7 b3bd 37ad 81bc
00000210: 9049 95be e5a8 6ebe 9bd8 2f3e b048 2c3d
00000220: 72d4 5d3e 317b 97be efe1 46be a3bf e1bd
00000230: 647c 453e 3724 ad3e 8f9f b33e 646e bbbe
00000240: 7076 48be 99d6 09bd 7e2e d7bd 6cae 3d3e
00000250: 2201 cb3c a060 943e 9726 a3bd ff54 da3e
00000260: 7af2 92be 0b73 58be 9bc1 85be 89e5 e4be
00000270: c6de 62be a250 67bc 6f69 89be 18b5 b13e
00000280: 49b9 3a3e 6892 353d 23ce 393e 9d1c a13e
00000290: 81ef 8dbe 28ab b5be ac5f 8b3d 8a5b aabd
000002a0: 1649 cc3c 2a39 1f3e 7c99 133e e1a5 063e
000002b0: accc c0be aaf8 613e 598c 8a3d 6028 0a3e
000002c0: 410f 23be c1b2 c8bd 40c8 d93d ad87 93be
000002d0: fdd1 84be 45d6 4f3e dfb7 c6bc 047d f23e
000002e0: bb94 80be dd5d 3fbe 394f a53c bc99 9fbe
000002f0: 73cc 8ebe 0723 edbd b89c 863d 8b08 c63b
00000300: a778 f1bd 6334 393e 73f7 a03e 59bd 6bbe
00000310: da15 58be 2b59 9d3e c60a 8f3e 5045 78be
00000320: ae14 d3be 29e2 2b3e 3972 123e 769e d6be
00000330: 709f 76be 1b72 953e 1d6f c0be 680a d63d
00000340: 2ace 97be c94c ad3e 8278 6c3e 953b 453e
00000350: 3d25 adb8 4de9 91be 79f3 2c3e 516f 8cbe
00000360: 3dd2 dc3e a9d2 fdbd 60d7 6cbe b646 e23d
00000370: 2ab6 bdbe 5133 8bbe 91e3 9b3e 52e4 8b3d
00000380: 57b1 4ebd ca8e 08be fcf3 993e 8ba0 bbbe
00000390: b635 8abd 07e9 7f3e 720c 79be 653a a4be
000003a0: 42ee 263e 9cce a2be 28b3 3abe 5d57 8bbe
000003b0: 923b cc3e 3578 8ebc cdb2 2ebe 9e7e 61be
000003c0: 91e8 15bd c20b 81be d3c4 0fbe 034e 83bd
000003d0: 4737 f83e 5fa4 b3be 7346 ea3d 6165 803e
000003e0: 717a dd3e e5c2 90be 83ca f3be 0887 4a3e
000003f0: 66a3 08be 1240 933e 771d 4ebe 7295 623e
-0.2628311 0.076072775 0.23759755 0.39285544 0.032500677 -0.120113 -0.24954009 0.2098783
-0.1898182 0.23874836 0.34091184 0.12788717 0.22078742 -0.011274872 -0.038326886 -0.24554984
0.21493244 0.14405824 0.058639444 -0.29573286 -0.25962877 0.21296361 0.21632515 0.21079391
-0.027892957 -0.050423995 0.39455798 0.11193497 -0.29345945 0.32295892 0.09931694 -0.32556838
0.053117823 -0.21981862 0.118498296 -0.19980727 -0.057712622 -0.41865006 0.22463137 -0.21077122
0.17416686 -0.3357451 -0.18472175 -0.06292399 0.094382994 -0.045292877 -0.32615447 -0.26478025
-0.2818142 0.2661314 -0.22671619 -0.3884829 -0.28921282 0.2439187 -0.39562222 0.38006216
0.29659304 -0.09076246 0.32474682 -0.36267272 0.10177572 -0.32210582 0.4384027 -0.17312056
-0.35551327 -0.16810453 0.010611206 0.23286606 0.232826 -0.066972695 -0.17888229 0.16761276
0.28437054 0.18365866 0.08611795 -0.09137337 -0.19213942 0.13014477 0.049653757 -0.19501339
0.18970671 -0.035259545 -0.30286738 0.1922283 -0.22286221 -0.37667426 -0.04550176 0.39735478
0.1871161 0.15843603 0.0776894 -0.19718638 -0.21602225 -0.33024457 0.4546141 0.20063636
-0.2879447 0.2866296 0.40881133 0.14023566 0.09264301 -0.24613371 -0.13293037 0.021184174
0.25862524 -0.31925833 -0.26071522 -0.116168395 -0.23515889 -0.363905 0.22966696 0.39492685
0.1766871 -0.2192286 0.20305388 0.14736734 -0.39308453 0.17424394 -0.32783383 0.24757203
0.33824733 0.07425877 -0.31589532 0.1556539 -0.34565365 0.27319163 0.1605005 0.13558997
-0.28098744 0.35617173 -0.08784448 -0.015829666 -0.29157686 -0.23306616 0.17172472 0.042061508
0.21663073 -0.29586175 -0.19422124 -0.1102288 0.19285733 0.33816692 0.3508267 -0.3660766
-0.1957643 -0.033651922 -0.105069146 0.18523568 0.024780814 0.2897997 -0.07966345 0.42642972
-0.2870062 -0.21137635 -0.26124272 -0.4470637 -0.22155294 -0.014118345 -0.26838252 0.34708476
0.18234743 0.044329077 0.18145041 0.31467143 -0.2772179 -0.35482144 0.06805357 -0.08318241
0.024937194 0.1554915 0.14414018 0.13149215 -0.37656152 0.22067514 0.067650504 0.13491964
-0.15923788 -0.097997196 0.10633898 -0.2881445 -0.25941458 0.20296581 -0.024257598 0.47361004
-0.25113472 -0.1868815 0.020179378 -0.31171978 -0.27890357 -0.115789466 0.065728605 0.006043499
-0.11790591 0.1808639 0.3143879 -0.23021449 -0.21102086 0.30732092 0.27937907 -0.2424519
-0.41226715 0.16785492 0.14301385 -0.4191777 -0.24084258 0.29188618 -0.37584773 0.104512036
-0.29649478 0.33847645 0.23092845 0.1926101 -8.256219e-05 -0.28498307 0.16889752 -0.27428678
0.4312915 -0.12393696 -0.23129034 0.11048643 -0.37053043 -0.2718759 0.30447057 0.06830658
-0.050462093 -0.1333572 0.30068958 -0.36645922 -0.06748526 0.24991237 -0.24321154 -0.32075801
0.16301826 -0.31798255 -0.18232405 -0.2721509 0.398892 -0.017391304 -0.17060395 -0.22020957
-0.036598746 -0.25204283 -0.14039926 -0.06411364 0.48479673 -0.35086343 0.11439218 0.25077346
0.43257478 -0.28273693 -0.47615442 0.19778073 -0.13343582 0.2875982 -0.20128427 0.22127321

fc.3.bias f4 [10]
00000000: 1a96 05bd 03eb 033d b26e a13c 8f29 873b
00000010: cee0 b7bd 9fe2 733d 1f23 663d 4944 443d
00000020: cf41 1ebe da89 68bd
-0.03261385 0.032206547 0.019706104 0.004124827 -0.08978425 0.059542295 0.056185838 0.047916684
-0.15454791 -0.05677209
